…
Hyperparameters {'lr0': 0.01, 'lrf': 0.2, 'momentum': 0.937, 'weight_decay': 0.0005, 'warmup_epochs': 3.0, 'warmup_momentum': 0.8, 'warmup_bias_lr': 0.1, 'box': 0.05, 'cls': 0.5, 'cls_pw': 1.0, 'obj': 1.0, 'obj_pw': 1.0, 'iou_t': 0.2, 'anchor_t': 4.0, 'fl_gamma': 0.0, 'hsv_h': 0.015, 'hsv_s': 0.7, 'hsv_v': 0.4, 'degrees': 0.0, 'translate': 0.1, 'scale': 0.5, 'shear': 0.0, 'perspective': 0.0, 'flipud': 0.0, 'fliplr': 0.5, 'mosaic': 1.0, 'mixup': 0.0}
Overriding model.yaml nc=80 with nc=3

                 from  n    params  module                                  arguments                     
  0                -1  1       464  models.common.Conv                      [3, 16, 3, 1]                 
  1                -1  1         0  torch.nn.modules.pooling.MaxPool2d      [2, 2, 0]                     
  2                -1  1      4672  models.common.Conv                      [16, 32, 3, 1]                
  3                -1  1         0  torch.nn.modules.pooling.MaxPool2d      [2, 2, 0]                     
  4                -1  1     18560  models.common.Conv                      [32, 64, 3, 1]                
  5                -1  1         0  torch.nn.modules.pooling.MaxPool2d      [2, 2, 0]                     
  6                -1  1     73984  models.common.Conv                      [64, 128, 3, 1]               
  7                -1  1         0  torch.nn.modules.pooling.MaxPool2d      [2, 2, 0]                     
  8                -1  1    295424  models.common.Conv                      [128, 256, 3, 1]              
  9                -1  1         0  torch.nn.modules.pooling.MaxPool2d      [2, 2, 0]                     
 10                -1  1   1180672  models.common.Conv                      [256, 512, 3, 1]              
 11                -1  1         0  torch.nn.modules.padding.ZeroPad2d      [[0, 1, 0, 1]]                
 12                -1  1         0  torch.nn.modules.pooling.MaxPool2d      [2, 1, 0]                     
 13                -1  1   4720640  models.common.Conv                      [512, 1024, 3, 1]             
 14                -1  1    262656  models.common.Conv                      [1024, 256, 1, 1]             
 15                -1  1   1180672  models.common.Conv                      [256, 512, 3, 1]              
 16                -2  1     33024  models.common.Conv                      [256, 128, 1, 1]              
 17                -1  1         0  torch.nn.modules.upsampling.Upsample    [None, 2, 'nearest']          
 18           [-1, 8]  1         0  models.common.Concat                    [1]                           
 19                -1  1    885248  models.common.Conv                      [384, 256, 3, 1]              
 20          [19, 15]  1     18480  models.yolo.Detect                      [3, [[10, 14, 23, 27, 37, 58], [81, 82, 135, 169, 344, 319]], [256, 512]]
Model Summary: 59 layers, 8674496 parameters, 8674496 gradients

Transferred 68/72 items from yolov3-tiny.pt
Optimizer groups: 13 .bias, 13 conv.weight, 11 other
Scanning 'BCCD/labels/train.cache' for images and labels... 255 found, 0 missing, 0 empty, 0 corrupted: 100%|██████████| 255/255 [00:00<?, ?it/s]Scanning 'BCCD/labels/train.cache' for images and labels... 255 found, 0 missing, 0 empty, 0 corrupted: 100%|██████████| 255/255 [00:00<00:00, 2010427.67it/s]
…
